…
Transforming the datasets... Number of word features=  2236  char features=  159
2267 train sequences
5.185476779937744
Pad sequences (samples x time)
x_train shape: (2267, 2000)
Transforming the labels... Class labels =  ['B1', 'A2', 'A1', 'C1', 'B2']
0.008525848388671875
Build model...  1
__________________________________________________________________________________________________
Layer (type)                    Output Shape         Param #     Connected to                     
==================================================================================================
char_input (InputLayer)         (None, 2000)         0                                            
__________________________________________________________________________________________________
word_input (InputLayer)         (None, 400)          0                                            
__________________________________________________________________________________________________
embedding_1 (Embedding)         (None, 2000, 16)     2544        char_input[0][0]                 
__________________________________________________________________________________________________
embedding_2 (Embedding)         (None, 400, 32)      71552       word_input[0][0]                 
__________________________________________________________________________________________________
spatial_dropout1d_1 (SpatialDro (None, 2000, 16)     0           embedding_1[0][0]                
__________________________________________________________________________________________________
spatial_dropout1d_2 (SpatialDro (None, 400, 32)      0           embedding_2[0][0]                
__________________________________________________________________________________________________
flatten_1 (Flatten)             (None, 32000)        0           spatial_dropout1d_1[0][0]        
__________________________________________________________________________________________________
flatten_2 (Flatten)             (None, 12800)        0           spatial_dropout1d_2[0][0]        
__________________________________________________________________________________________________
concatenate_1 (Concatenate)     (None, 44800)        0           flatten_1[0][0]                  
                                                                 flatten_2[0][0]                  
__________________________________________________________________________________________________
dropout_1 (Dropout)             (None, 44800)        0           concatenate_1[0][0]              
__________________________________________________________________________________________________
dense_1 (Dense)                 (None, 5)            224005      dropout_1[0][0]                  
==================================================================================================
Total params: 298,101
Trainable params: 298,101
Non-trainable params: 0
__________________________________________________________________________________________________
Epoch 1/5

 128/2038 [>.............................] - ETA: 39s - loss: 1.6056 - acc: 0.2344
…
