…
Transforming the datasets... Number of word features=  2236  char features=  159
2267 train sequences
1.4078114032745361
Pad sequences (samples x time)
x_train shape: (2267, 2000)
Transforming the labels... Class labels =  ['C1', 'A2', 'B1', 'B2', 'A1']
0.0022377967834472656
Build model...  1
__________________________________________________________________________________________________
Layer (type)                    Output Shape         Param #     Connected to                     
==================================================================================================
char_input (InputLayer)         (None, 2000)         0                                            
__________________________________________________________________________________________________
word_input (InputLayer)         (None, 400)          0                                            
__________________________________________________________________________________________________
embedding_1 (Embedding)         (None, 2000, 16)     2544        char_input[0][0]                 
__________________________________________________________________________________________________
embedding_2 (Embedding)         (None, 400, 32)      71552       word_input[0][0]                 
__________________________________________________________________________________________________
spatial_dropout1d_1 (SpatialDro (None, 2000, 16)     0           embedding_1[0][0]                
__________________________________________________________________________________________________
spatial_dropout1d_2 (SpatialDro (None, 400, 32)      0           embedding_2[0][0]                
__________________________________________________________________________________________________
flatten_1 (Flatten)             (None, 32000)        0           spatial_dropout1d_1[0][0]        
__________________________________________________________________________________________________
flatten_2 (Flatten)             (None, 12800)        0           spatial_dropout1d_2[0][0]        
__________________________________________________________________________________________________
concatenate_1 (Concatenate)     (None, 44800)        0           flatten_1[0][0]                  
                                                                 flatten_2[0][0]                  
__________________________________________________________________________________________________
dense_1 (Dense)                 (None, 3)            134403      concatenate_1[0][0]              
__________________________________________________________________________________________________
concatenate_2 (Concatenate)     (None, 44803)        0           concatenate_1[0][0]              
                                                                 dense_1[0][0]                    
__________________________________________________________________________________________________
dropout_1 (Dropout)             (None, 44803)        0           concatenate_2[0][0]              
__________________________________________________________________________________________________
dense_2 (Dense)                 (None, 5)            224020      dropout_1[0][0]                  
==================================================================================================
Total params: 432,519
Trainable params: 432,519
Non-trainable params: 0
__________________________________________________________________________________________________
Epoch 1/8

 128/2038 [>.............................] - ETA: 20s - loss: 2.1450 - dense_2_loss: 1.5965 - dense_1_loss: 1.0970 - dense_2_acc: 0.3281 - dense_1_acc: 0.3906
…
